Backend/MuseumAPI/Machine Learning/paintingModel.onnx (onnx, 29451 bytes, 5 tensors)

0.weight f4 [64, 8]
0.10887577 -0.048063353 0.04684962 0.08935399 0.1769669 0.17246476 0.02380277 0.03972495
-0.27383962 -0.11479385 0.23509404 0.22710589 0.2903601 0.1913437 0.34393403 0.14246947
-0.08859414 -0.010072416 0.49828696 0.8606586 0.5845237 0.5304832 0.5524336 0.4919642
0.40727347 0.21308598 0.5947913 0.68177956 0.54838717 0.53274083 0.56687886 0.63783985
-0.14093836 0.072756134 0.60598785 0.77003574 0.8222761 0.6661743 0.6663546 0.44937986
0.2490335 0.0012906659 0.21180053 0.18292245 0.31906974 0.3257424 0.52922386 0.3249014
0.26597577 -0.08295235 0.65040654 0.8784085 0.9285614 0.6189527 0.62904054 0.66116303
-0.43755347 0.013782914 0.5826256 0.5499697 0.63578945 0.55876595 0.56916726 0.5757333
0.010492071 0.119834624 0.5641798 0.6403255 0.72274715 0.6107059 0.61568534 0.6152882
-0.31334364 -0.0310973 0.616589 0.7637761 0.6372934 0.7539967 0.60175395 0.5827662
0.02905707 -0.34890398 0.30933073 0.29511997 0.33755797 0.24092276 0.44987643 0.4008637
0.15220611 0.104359396 0.057886858 0.18556094 0.17015196 0.23539692 0.1182159 0.10190613
0.14862795 0.07319246 0.36109307 0.3028067 0.57064676 0.33424413 0.3418668 0.39186278
0.11261237 0.0660624 0.58725154 0.7239509 0.5598339 0.8037308 0.5985667 0.6938205
0.016399518 -0.01777377 0.67114073 0.32122952 0.2724262 0.38405803 0.36284357 0.4185486
-0.099211834 -0.111765355 0.17105868 0.18612307 0.17550562 0.23428077 0.2609859 0.2512504
-0.20043941 -0.2910489 0.50158656 0.27259633 0.6294243 0.46616578 0.6348351 0.43852642
0.48871073 -0.046829067 0.6086602 0.59551287 0.63821024 0.8841879 0.6806544 0.66524756
0.1361336 0.0035400104 0.44937125 0.47330853 0.4643768 0.4703159 0.55329376 0.46563002
0.010250289 -0.235284 0.2325509 0.35812426 0.6006132 0.42353848 0.3003952 0.36503747
-0.30890784 0.20344488 0.6452153 0.6442599 0.5734203 0.6155386 0.43504757 0.57464445
-0.11292555 -0.02376771 0.72987187 0.8485837 0.53412664 0.5475843 0.5792544 0.67266047
-0.20477982 0.03321709 0.39825714 0.419447 0.33846718 0.49165377 0.50558144 0.3398694
-0.20400822 0.05946556 0.29294112 0.33559057 0.3903098 0.74238825 0.64318013 0.3249301
-0.23550303 0.18476154 0.65731716 0.57968 0.64392215 0.6263047 0.64753515 0.94143355
-0.096113615 -0.08008033 0.65852666 0.76501954 0.43425807 0.50168025 0.7636927 0.49681056
0.25868487 -0.04884261 0.5810356 0.51788557 0.54741025 0.55817515 0.6358405 0.58279294
-0.033073667 0.265332 0.41146696 0.3443929 0.544947 0.33766046 0.24148247 0.25924
-0.12082724 0.20232014 0.47517586 0.46666625 0.6507448 0.64441204 0.44807866 0.49569342
-0.09679326 0.16675887 0.5762238 0.6545716 0.5249408 0.486013 0.60622853 0.59599334
-0.110362105 -0.13406648 0.2692596 0.0917161 0.31414986 0.46265918 0.12854138 0.26790455
0.08544722 -0.009974415 0.6130237 0.44902828 0.29744148 0.24075308 0.4901132 0.27224916
00000000: 42fa de3d 14de 44bd 63e5 3f3d 3aff b63d
00000010: d036 353e 9a9a 303e 07fe c23c a1b6 223d
00000020: b534 8cbe 0a19 ebbd 7ebc 703e 728e 683e
00000030: 14aa 943e 9aef 433e 1f18 b03e 84e3 113e
00000040: d870 b5bd c606 25bc 781f ff3e 1f54 5c3f
00000050: 58a3 153f bfcd 073f 4a6c 0d3f bbe2 fb3e
00000060: 2686 d03e 3633 5a3e 3e44 183f 1b89 2e3f
00000070: 1a63 0c3f b461 083f f91e 113f 7949 233f
00000080: 2552 10be 2b01 953d 0522 1b3f 1021 453f
00000090: b080 523f 668a 2a3f 3796 2a3f 1e15 e63e
000000a0: a302 7f3e 902b a93a 3de2 583e 0650 3b3e
000000b0: 1c5d a33e b5c7 a63e 377b 073f 7a59 a63e
000000c0: fa2d 883e ece2 a9bd 0b81 263f 61df 603f
000000d0: 33b6 6d3f af73 1e3f cd08 213f fb41 293f
000000e0: 0207 e0be bbd1 613c f426 153f d0ca 0c3f
000000f0: 19c3 223f 490b 0f3f f2b4 113f 4263 133f
00000100: efe6 2b3c db6b f53d 166e 103f 5fec 233f
00000110: f505 393f 3957 1c3f 8e9d 1d3f 8783 1d3f
00000120: 946e a0be c4bf febc c7d8 1d3f d586 433f
00000130: a925 233f ed05 413f 8c0c 1a3f 2a30 153f
00000140: 1809 ee3c 8ba3 b2be 9960 9e3e f719 973e
00000150: 66d4 ac3e 75b4 763e 3456 e63e 023e cd3e
00000160: ebdb 1b3e 61ba d53d c51a 6d3d b003 3e3e
00000170: 513c 2e3e e40b 713e 2e1b f23d 29b4 d03d
00000180: ed31 183e eee5 953d 31e1 b83e 7b09 9b3e
00000190: e815 123f 0c22 ab3e 2a09 af3e 3da2 c83e
000001a0: 50a1 e63d b94b 873d 1e56 163f d954 393f
000001b0: 4651 0f3f 4dc1 4d3f ab3b 193f 389e 313f
000001c0: 4858 863c 4c9a 91bc e1cf 2b3f 3278 a43e
000001d0: 727b 8b3e 41a3 c43e a2c6 b93e 014c d63e
000001e0: 932f cbbd 3ce5 e4bd 022a 2f3e 0c97 3e3e
000001f0: bfb7 333e 4ce7 6f3e f29f 853e e4a3 803e
00000200: fd3f 4dbe 5d04 95be fa67 003f bf91 8b3e
00000210: f321 213f 48ad ee3e 8e84 223f 8986 e03e
00000220: 4b38 fa3e d6cf 3fbd 28d1 1b3f 8873 183f
00000230: bf61 233f 235a 623f 5e3f 2e3f aa4d 2a3f
00000240: 9b66 0b3e 85ff 673b fd13 e63e 7f55 f23e
00000250: ccc2 ed3e 3fcd f03e a9a4 0d3f 0f67 ee3e
00000260: d4f0 273c 4aee 70be d321 6e3e 105c b73e
00000270: c9c1 193f 09da d83e 66cd 993e 31e6 ba3e
00000280: 2b29 9ebe db53 503e d42c 253f 38ee 243f
00000290: accb 123f f093 1d3f 8ebe de3e e61b 133f
000002a0: 8345 e7bd 80b4 c2bc e2d8 3a3f c83c 593f
000002b0: 86bc 083f 7c2e 0c3f 044a 143f 7a33 2c3f
000002c0: cdb1 51be a50e 083d 5ce8 cb3e c2c1 d63e
000002d0: 924b ad3e 0bba fb3e c96d 013f 5d03 ae3e
000002e0: 88e7 50be 2992 733d 61fc 953e 87d2 ab3e
000002f0: b0d6 c73e 280d 3e3f 74a7 243f 3d5d a63e
00000300: b527 71be 2132 3d3e f045 283f e965 143f
00000310: 15d8 243f 8155 203f ddc4 253f ca01 713f
00000320: 37d7 c4bd 2801 a4bd 3495 283f 52d8 433f
00000330: 1357 de3e 1e6e 003f 5d81 433f f45d fe3e
00000340: 5872 843e 300f 48bd c0be 143f 2694 043f
00000350: 1423 0c3f 91e4 0e3f 71c6 223f eb31 153f
00000360: 4178 07bd 99d9 873e ccab d23e 4454 b03e
00000370: a681 0b3f d5e1 ac3e 2e47 773e 1bbb 843e
00000380: 4674 f7bd 032d 4f3e 404a f33e e1ee ee3e
00000390: 3697 263f 30f8 243f 916a e53e 87cb fd3e
000003a0: 8b3b c6bd d6c2 2a3e 6783 133f 0192 273f
000003b0: 8562 063f b2d6 f83e cb31 1b3f 0593 183f
000003c0: 8705 e2bd b948 09be 65dc 893e a7d5 bb3d
000003d0: 40d8 a03e aae1 ec3e 5aa0 033e c92a 893e
000003e0: f4fe ae3d bb6b 23bc 1fef 1c3f 09e7 e53e
000003f0: 404a 983e fa87 763e 1ef0 fa3e 3e64 8b3e

0.bias f4 [64]
-0.5347057 -0.9554753 -0.9066113 -1.3351654 -0.8221509 -1.0065876 -1.2888579 -1.577745
-0.63932145 -0.876455 -0.96557814 -0.7135324 -0.8902739 -0.73550797 -0.77328086 -0.7578927
-1.2614926 -1.4936043 -0.4474361 -1.0247139 -1.0825032 -1.2095114 -0.65365905 -1.2500831
-1.4213127 -0.88220096 -0.73406947 -1.0287011 -0.9118788 -0.7860855 -1.0210179 -0.7533047
-0.53527707 -1.6514695 -0.87561405 -0.7213355 -1.3461559 -1.1657585 -1.1520021 -0.6226901
-0.45107752 -0.88117033 -0.66247314 -0.45180792 -0.7672878 -0.9715617 -1.1882117 -1.1935469
-1.1227516 -1.1793808 -0.92809767 -0.8381285 -0.92857075 -0.6439357 -0.9613305 -0.86742467
-0.70208025 -0.8197663 -0.532305 -0.7932167 -0.87809557 -0.5495651 -0.5479748 -1.7801712
00000000: 79e2 08bf 079a 74bf ae17 68bf b3e6 aabf
00000010: 7b78 52bf ddd7 80bf 4cf9 a4bf 8cf3 c9bf
00000020: 92aa 23bf 5b5f 60bf 2130 77bf 0faa 36bf
00000030: fee8 63bf 404a 3cbf bcf5 45bf 4205 42bf
00000040: 9778 a1bf 6d2e bfbf 5816 e5be d329 83bf
00000050: 778f 8abf 45d1 9abf 3356 27bf b902 a0bf
00000060: 93ed b5bf ecd7 61bf faeb 3bbf 7aac 83bf
00000070: e470 69bf e63c 49bf b7b0 82bf 94d8 40bf
00000080: eb07 09bf 5a63 d3bf 3e28 60bf 71a9 38bf
00000090: d64e acbf 9337 95bf ce74 93bf 9e68 1fbf
000000a0: a2f3 e6be 6194 61bf d797 29bf 5e53 e7be
000000b0: f96c 44bf 44b8 78bf 5217 98bf 25c6 98bf
000000c0: 53b6 8fbf f3f5 96bf cf97 6dbf 978f 56bf
000000d0: d0b6 6dbf f8d8 24bf c119 76bf 8b0f 5ebf
000000e0: 88bb 33bf 34dc 51bf 2445 08bf 4010 4bbf
000000f0: dfca 60bf 4cb0 0cbf 1448 0cbf a6dc e3bf

3.weight f4 [32, 64]
0.038024995 0.007435992 -0.010073048 0.15708327 -0.03082939 0.1208653 0.123117186 0.08514138
0.037279703 0.17169541 0.06981118 0.07064551 0.113115646 -0.012434296 0.1418203 0.08350051
0.07994156 0.098191 -0.032321744 0.03334156 0.06216365 -0.032572027 0.057652645 0.063539214
0.06891807 -0.048813038 0.0008176795 0.1375105 0.12109913 -0.11398504 0.05987631 -0.0055006184
0.16723645 0.2660938 0.13383031 0.13857104 0.23845017 0.042802703 0.02436373 -0.008312304
0.00026058362 0.03680535 0.0011739944 -0.004753961 0.0025369865 0.018741203 0.0904714 0.004689282
0.008068125 0.038501166 0.15733625 0.111840084 0.06639919 -0.02780753 0.15504785 0.13971281
0.08828705 0.10333721 0.10752083 0.0509745 -0.05944464 -0.051568467 0.05444788 0.033763606
0.0736672 0.098140284 0.17373845 0.17316864 0.009956453 -0.05482694 0.1350074 0.06888395
0.19490501 -0.05338344 0.009744691 -0.041616954 0.076228485 0.005817041 0.029003652 0.173546
0.12018657 0.0012354503 0.035788268 0.10709131 0.020076083 0.01759567 0.11777933 0.14925157
0.21291994 -0.0685701 0.111995086 0.030928126 0.08756997 -0.18880978 0.17508094 0.08617832
0.038112693 0.14266989 0.01558714 0.1444997 0.2657069 0.025884347 -0.008323728 0.19776082
-0.0036455144 0.18473597 -0.041487515 -0.076729156 0.11003555 0.057976272 0.1149685 0.005089611
0.11477458 0.06464307 0.018414102 0.14495519 0.077877544 -0.048541963 0.18053824 0.1831328
0.17651318 0.18482977 0.08745843 -0.022782853 0.09523099 0.120575674 0.17525987 0.062262975
0.13581355 -0.19106454 -0.8788271 0.5408469 -0.2105515 -0.5037881 -0.030386828 -0.012402372
-1.1711943 -1.1618593 0.36258397 -0.39960977 0.8411269 0.40347123 0.14375696 -0.4853919
-0.8482531 0.65278953 1.1173121 -0.15587713 -0.4638573 -0.12263685 0.20593837 -0.10629134
0.84028596 -1.6938165 0.2731757 -0.823656 -0.21206139 -0.8154352 -0.16374697 0.1477867
-0.87233007 0.039293956 -1.079536 0.05293569 -0.19587906 -0.6935417 0.65953785 -0.5411454
1.2088656 -1.4627893 -0.55369973 0.12976804 0.018307803 -0.45522803 -2.3278291 -1.4193487
-0.51548207 -0.8839426 -0.48521072 -0.016984396 0.46479225 0.0126543585 -1.2091975 -0.34140202
-0.03419458 -1.2794768 -0.54371923 0.42621157 0.22580367 -0.26842076 0.23229761 -0.4414629
-0.18028285 -0.23305574 -0.07254163 -0.057400614 -0.17924383 -0.5497775 -0.06933138 -0.14145964
-0.24470899 -0.12853794 -0.110841095 0.08292035 -0.25985914 -0.14819743 -0.035391405 -0.35831082
-0.022886736 -0.32819414 -0.41016752 -0.116543 -0.10296865 -0.12814434 -0.16931203 0.054415807
-0.10952253 -0.032285955 -0.096527696 0.00061686337 -0.07782604 -0.08682003 0.050459217 -0.11895803
0.0079533905 -0.17962372 -0.09276549 -0.18369609 -0.08823783 -0.39000887 -0.33686975 -0.109788716
-0.2037128 -0.040344145 0.010952476 -0.061984934 -0.05657795 0.029086865 -0.23746336 -0.27226296
-0.17703342 -0.12446319 -0.17152087 -0.13876198 -0.18464419 0.07048592 0.014467002 -0.3062455
-0.27121586 -0.053324297 -0.24462797 -0.13698092 -0.35044715 -0.10288397 -0.060960367 -0.12909152
00000000: 19c0 1b3d 9fa9 f33b 6d09 25bc 70da 203e
00000010: eb8d fcbc 3a88 f73d dd24 fc3d 9b5e ae3d
00000020: 9ab2 183d ecd0 2f3e 2af9 8e3d 98ae 903d
00000030: 2da9 e73d 38b9 4bbc 5739 113e 5102 ab3d
00000040: 67b8 a33d 5d18 c93d ce63 04bd 2991 083d
00000050: 509f 7e3d 3f6a 05bd 2e25 6c3d d920 823d
00000060: eb24 8d3d 2ef0 47bd 8b59 563a 8dcf 0c3e
00000070: d202 f83d fd70 e9bd dd40 753d 883e b4bb
00000080: 0840 2b3e 723d 883e d00a 093e 91e5 0d3e
00000090: 482c 743e e351 2f3d 7296 c73c 5430 08bc
000000a0: f19e 8839 35c1 163d b7e0 993a 1ec7 9bbb
000000b0: 9243 263b 2787 993c 1249 b93d 8ca8 993b
000000c0: 2b30 043c 66b3 1d3d c11c 213e 6a0c e53d
000000d0: 4cfc 873d 9ecc e3bc ddc4 1e3e e010 0f3e
000000e0: d7cf b43d 76a2 d33d e233 dc3d a3ca 503d
000000f0: 397c 73bd 7539 53bd bd04 5f3d b54b 0a3d
00000100: d4de 963d c6fd c83d 7ee8 313e 1f53 313e
00000110: 6420 233c 3792 60bd 613f 0a3e 0713 8d3d
00000120: 2e95 473e 98a8 5abd 32a8 1f3c 8a76 2abd
00000130: ae1d 9c3d e09c be3b 1199 ed3c 0bb6 313e
00000140: 6024 f63d d5ee a13a b896 123d b052 db3d
00000150: 9976 a43c cb24 903c 4a36 f13d 67d5 183e
00000160: af07 5a3e 7b6e 8cbd ae5d e53d fb5c fd3c
00000170: e257 b33d 5a57 41be 6b48 333e 427e b03d
00000180: 0e1c 1c3d 0e18 123e 3461 7f3c bbf7 133e
00000190: bc0a 883e 690b d43c 3f60 08bc d081 4a3e
000001a0: 95e9 6ebb 6d2b 3d3e d0ee 29bd 2d24 9dbd
000001b0: 525a e13d 8778 6d3d 9b74 eb3d c0c6 a63b
000001c0: ef0e eb3d 9663 843d 2cd9 963c 226f 143e
000001d0: 437e 9f3d f0d3 46bd 04df 383e 2a87 3b3e
000001e0: dfbf 343e 0444 3d3e 681d b33d 1ba3 babc
000001f0: 7708 c33d 61f0 f63d 5377 333e 7607 7f3d
00000200: b512 0b3e 6ca6 43be d0fa 60bf f174 0a3f
00000210: d09a 57be 42f8 00bf cced f8bc 5233 4bbc
00000220: b2e9 95bf ceb7 94bf 9ba4 b93e a799 ccbe
00000230: 1854 573f c893 ce3e 0635 133e 4a85 f8be
00000240: 1d27 59bf 371d 273f 1504 8f3f 419e 1fbe
00000250: b47e edbe 0729 fbbd 82e1 523e 46af d9bd
00000260: fb1c 573f fbce d8bf afdd 8b3e 1fdb 52bf
00000270: 9f26 59be 5cc0 50bf 49ad 27be 6655 173e
00000280: 0651 5fbf b3f2 203d 3c2e 8abf 18d3 583d
00000290: 8594 48be f38b 31bf 79d7 283f 8188 0abf
000002a0: 1cbc 9a3f ae3c bbbf 44bf 0dbf eae1 043e
000002b0: 3ffa 953c a613 e9be 27fb 14c0 38ad b5bf
000002c0: a2f6 03bf 104a 62bf 8a6d f8be dc22 8bbc
000002d0: 40f9 ed3e 3a54 4f3c fcc6 9abf 3fcc aebe
000002e0: 9e0f 0cbd e5c5 a3bf 2f31 0bbf 6738 da3e
000002f0: 1439 673e 726e 89be 6ddf 6d3e 6d07 e2be
00000300: 119c 38be 2aa6 6ebe b590 94bd e81c 6bbd
00000310: b28b 37be 38be 0cbf 9cfd 8dbd ccda 10be
00000320: fe94 7abe 739f 03be a800 e3bd 25d2 a93d
00000330: 420c 85be 11c1 17be 94f6 10bd 8474 b7be
00000340: f77c bbbc 1009 a8be 7a01 d2be 19ae eebd
00000350: 3ae1 d2bd 4538 03be 2260 2dbe 1ce3 5e3d
00000360: 594d e0bd 473e 04bd 50b0 c5bd 00b5 213a
00000370: 4263 9fbd b3ce b1bd 53ae 4e3d 45a0 f3bd
00000380: f04e 023c 48ef 37be d5fb bdbd d41a 3cbe
00000390: 09b6 b4bd 3eaf c7be 317a acbe e8d8 e0bd
000003a0: 179a 50be e73f 25bd 0472 333c eae3 7dbd
000003b0: 48be 67bd 9447 ee3c 9829 73be 0d66 8bbe
000003c0: 4048 35be 8fe6 febd 2ba3 2fbe 9f17 0ebe
000003d0: 5e13 3dbe ec5a 903d 0107 6d3c 36cc 9cbe
000003e0: cedc 8abe 946a 5abd c17f 7abe ba44 0cbe
000003f0: cf6d b3be d5b4 d2bd 94b1 79bd 9130 04be

3.bias f4 [32]
41.900146 42.098866 -0.49103537 -0.49533457 42.79666 -0.90471584 41.949173 -0.342391
42.212097 41.841816 -0.22320361 -0.34006172 -0.834317 42.25186 -0.5118545 43.22375
42.39332 -0.4745498 42.13659 -0.3673875 42.211998 -0.73851126 42.309143 42.187786
45.970673 42.51785 42.409348 -0.325132 42.05166 42.23632 42.20234 -0.57412034
00000000: c099 2742 3d65 2842 fd68 fbbe 7e9c fdbe
00000010: c82f 2b42 759b 67bf f4cb 2742 e04d afbe
00000020: 30d9 2842 055e 2742 7d8f 64be 921c aebe
00000030: cd95 55bf e801 2942 e608 03bf 1fe5 2c42
00000040: c292 2942 31f8 f2be de8b 2842 371a bcbe
00000050: 16d9 2842 130f 3dbf 903c 2942 4bc0 2842
00000060: f8e1 3742 4712 2a42 2ca3 2942 b477 a6be
00000070: e634 2842 fef1 2842 32cf 2842 8df9 12bf

5.weight f4 [1, 32]
6.2304754 6.0858502 0.05088461 0.036751706 6.718438 -0.58255446 6.0992975 -0.24811181
6.222618 6.015381 -0.055695273 -0.0104110595 0.29940695 6.164998 0.30081156 7.2343397
6.0549383 -0.29242057 6.2666574 -0.26718104 6.277647 -0.35711816 6.072669 6.1106124
14.362208 6.303873 6.1089644 -0.017658625 6.261873 6.0891128 6.23209 -0.028504599
00000000: 0e60 c740 49bf c240 616c 503d f588 163d
00000010: 72fd d640 4a22 15bf 722d c340 0611 7ebe
00000020: b01f c740 007e c040 ba20 64bd 2693 2abc
00000030: de4b 993e aa47 c540 f903 9a3e b67f e740
00000040: 0ec2 c140 26b8 95be 7588 c840 f4cb 88be
00000050: 7ce2 c840 31d8 b6be 4e53 c240 238a c340
00000060: 9bcb 6541 54b9 c940 a37c c340 d2a8 90bc
00000070: 4361 c840 03da c240 486d c740 7a82 e9bc
